Model: "functional_11"
┏━━━━━━━━━━━━━━━━━━━━━━━━━━━━━━━━━┳━━━━━━━━━━━━━━━━━━━━━━━━┳━━━━━━━━━━━━━━━┓
┃ Layer (type)                    ┃ Output Shape           ┃       Param # ┃
┡━━━━━━━━━━━━━━━━━━━━━━━━━━━━━━━━━╇━━━━━━━━━━━━━━━━━━━━━━━━╇━━━━━━━━━━━━━━━┩
│ input_layer_8 (InputLayer)      │ (None, 1237)           │             0 │
├─────────────────────────────────┼────────────────────────┼───────────────┤
│ embedding_2 (Embedding)         │ (None, 1237, 128)      │         3,328 │
├─────────────────────────────────┼────────────────────────┼───────────────┤
│ add_2 (Add)                     │ (None, 1237, 128)      │             0 │
├─────────────────────────────────┼────────────────────────┼───────────────┤
│ transformer_block_6             │ (None, 1237, 128)      │       659,712 │
│ (TransformerBlock)              │                        │               │
├─────────────────────────────────┼────────────────────────┼───────────────┤
│ transformer_block_7             │ (None, 1237, 128)      │       659,712 │
│ (TransformerBlock)              │                        │               │
├─────────────────────────────────┼────────────────────────┼───────────────┤
│ transformer_block_8             │ (None, 1237, 128)      │       659,712 │
│ (TransformerBlock)              │                        │               │
├─────────────────────────────────┼────────────────────────┼───────────────┤
│ time_distributed_2              │ (None, 1237, 3)        │           387 │
│ (TimeDistributed)               │                        │               │
└─────────────────────────────────┴────────────────────────┴───────────────┘
 Total params: 5,948,555 (22.69 MB)
 Trainable params: 1,982,851 (7.56 MB)
 Non-trainable params: 0 (0.00 B)
 Optimizer params: 3,965,704 (15.13 MB)

